MentalHealth_Chatbot/model/data.pth (torch, 80881 bytes, 6 tensors)

l1.weight f4 [8, 1554]
0	0x3e3c13a9	0.18366875
1	0x3e3409e3	0.17581896
2	0x3f821d81	1.0165254
3	0x3f3dc60c	0.7413032
4	0x3e98c074	0.2983433
5	0x3df845da	0.12122698
6	0xbe9c8ef7	-0.30577824
7	0xbf9d7bbf	-1.2303389
8	0x3ee28976	0.442455
9	0x3ea5fe79	0.3242071
10	0xbf32f3a9	-0.69903046
11	0x3eadf84d	0.339785
12	0x3e19020c	0.14942187
13	0x3e71a4ae	0.23597977
14	0x3fd3caa8	1.6546221
15	0xbfb03867	-1.3767213
16	0x3ffbf129	1.9682971
17	0xbeb7eeeb	-0.35924467
18	0x3f37221d	0.7153643
19	0x3f114be9	0.56756455
20	0x3f2fba70	0.68643856
21	0x3fb53e1c	1.4159579
22	0xbe508ff0	-0.20367408
23	0x3ef12f69	0.47106484
24	0xbf5dc3c0	-0.86626816
25	0xbd0b315b	-0.033982616
26	0xbfb7284a	-1.430917
27	0xbeb6057a	-0.35551053
28	0xbf1034d0	-0.56330585
29	0xbc9292b0	-0.017892212
30	0x3fd97f5d	1.6991993
31	0xbd1a7278	-0.037706822
32	0xbdb6b665	-0.08921508
33	0xbfc15eea	-1.510709
34	0xbd5da745	-0.0541146
35	0xbe993292	-0.29921395
36	0x3fde1c59	1.7352401
37	0xbf88c85e	-1.0686147
38	0xbf2c5548	-0.6731763
39	0xbe300f07	-0.17193232
40	0x3f228400	0.63482666
41	0x3f7b19e7	0.980864
42	0xbe49571d	-0.19662137
43	0x3f805cca	1.0028317
44	0x3f9fc54b	1.2482084
45	0xbfd095d7	-1.6295727
46	0x3ed69ddf	0.4191732
47	0x3f3fa35e	0.74858654
48	0xbef29344	-0.4737798
49	0x3f519dc5	0.8188136
50	0x3fdb171f	1.7116431
51	0x3e725401	0.23664857
52	0x3f98ee58	1.1947737
53	0x3fd4768a	1.6598675
54	0x3e045f15	0.12926896
55	0xbe9ef284	-0.310444
56	0x3ddd5d34	0.10808793
57	0x4016721d	2.350715
58	0x3d669e83	0.056303512
59	0x3f8aee1c	1.0853915
60	0xbe1bebae	-0.15226623
61	0x3f8a7def	1.0819682
62	0x3f80f603	1.0075077
63	0x3f83eff1	1.0307599
64	0x3e6f2ab9	0.23356141
65	0x3f114b35	0.5675538
66	0x3ff88fdd	1.9418904
67	0x3fc7b69f	1.5602607
68	0xbf59e7bd	-0.8511923
69	0x3f83a1f3	1.0283798
70	0x3fdd753a	1.73014
71	0x3f86a797	1.0519894
72	0xbf6578fb	-0.89637727
73	0xbe4583e3	-0.19288592
74	0x3e885ce0	0.26633358
75	0x3f81c4e4	1.0138211
76	0x3f323c2a	0.69623053
77	0x3f737721	0.9510365
78	0x3f88dcc2	1.069237
79	0xbe189b7d	-0.14903064
80	0xbec54529	-0.38529328
81	0x3f996dc8	1.1986628
82	0x3fde3fac	1.7363181
83	0x3ef3ef13	0.47643337
84	0x3ee65516	0.4498679
85	0x3f81f213	1.0152
86	0xbe461104	-0.19342428
87	0x3ef0b283	0.47011194
88	0x3f3fa62c	0.74862933
89	0x3d8d4d51	0.068995126
90	0x3eb0a20a	0.34498626
91	0x3fb42ea8	1.4076738
92	0xbefa10eb	-0.48841032
93	0xbf1325c7	-0.5747952
94	0x3eff9f1d	0.4992608
95	0x3ef22ff1	0.473022
96	0x3d31b31f	0.043383714
97	0xbee5bd44	-0.4487096
98	0x3debc407	0.115119986
99	0x40003a0c	2.003543
100	0xbd292d0d	-0.04130273
101	0x3fa5e335	1.2959963
102	0x3e900a17	0.28132698
103	0x3e24c609	0.1609117
104	0x3d901bd6	0.07036559
105	0x3e781847	0.24228011
106	0xbaa72b41	-0.001275398
107	0x3e3a2247	0.18177138
108	0x3e2cb307	0.16865169
109	0xbe120fb6	-0.14263806
110	0x3f7b2488	0.9810262
111	0xbf188650	-0.59579945
112	0x3f9d15e9	1.2272311
113	0x3e946fb9	0.28991488
114	0xbe951d7a	-0.2912405
115	0xbe414297	-0.18873058
116	0x3f3fe3ae	0.74956787
117	0x3e63f374	0.22260839
118	0xbed86327	-0.42263147
119	0xbda9199c	-0.08256838
120	0xbed9acb4	-0.42514575
121	0x3ff7a394	1.9346795
122	0xbde0d715	-0.10978524
123	0x3f07f333	0.5310547
124	0x3eaa7560	0.33292675
125	0x3f8eac9c	1.1146426
126	0x3f06eb70	0.52703
127	0x3f56928f	0.8381738
128	0x3ef4d53b	0.47818932
129	0x3fa07b10	1.2537556
130	0x3ed5af9a	0.41735536
131	0x3e957198	0.29188228
132	0xbe22f620	-0.15914202
133	0x3fa3c130	1.2793331
134	0x3f143e0b	0.5790717
135	0x3ea66488	0.32498574
136	0x3e103e66	0.14086303
137	0xbc948ca3	-0.018133467
138	0xbf377340	-0.7166023
139	0x3ed76884	0.42071927
140	0xbbb724da	-0.00558911
141	0x3f446825	0.7672141
142	0x3f0f1ad9	0.5590034
143	0x3ee143c7	0.43997023
144	0x3f38ffd4	0.7226536
145	0xbd3abda4	-0.04559101
146	0x3f41abda	0.7565285
147	0xbdd35f4b	-0.1032091
148	0xbf865f73	-1.0497879
149	0x3f87e4f7	1.061675
150	0x3f0914a2	0.5354711
151	0x3fc786b3	1.5587982
152	0x3f707d29	0.9394098
153	0x3daae10d	0.08343706
154	0xbc855796	-0.016277116
155	0xbf031681	-0.51206213
156	0xbedc94bf	-0.43082234
157	0x3ef8c351	0.48586515
158	0x3e7c258f	0.24623702
159	0x3f032afd	0.5123747
160	0x3f20e941	0.6285592
161	0xbf1ce63b	-0.61288804
162	0x3f24ac18	0.64325094
163	0x3e866184	0.26246274
164	0xbeb786e8	-0.35845113
165	0x3f959741	1.1686784
166	0x3ea38424	0.31936753
167	0x3f25386a	0.64539206
168	0x3fdae82e	1.7102106
169	0x3eb15775	0.34637037
170	0xbf9e2224	-1.2354169
171	0xbf001e28	-0.50046015
172	0x3f524f07	0.82151836
173	0x3fb34b57	1.4007367
174	0x3f83154e	1.0240877
175	0x3fd079b6	1.6287143
176	0xbeaf1136	-0.34192818
177	0xbf881d2b	-1.0633901
178	0x3fd7c04d	1.685556
179	0x3fd8f07e	1.6948392
180	0xbe670c14	-0.22563201
181	0xbe35fb32	-0.17771605
182	0xbe52a0ee	-0.20569202
183	0xbec17349	-0.37783268
184	0x3e4df2c7	0.20112143
185	0x3f052c0f	0.52020353
186	0x3f8a081d	1.0783726
187	0x3f843965	1.0330015
188	0x3ee14e9e	0.44005293
189	0x3f841f2e	1.0322015
190	0x3fca1752	1.5788367
191	0x3fdcd926	1.7253768
192	0x3eca291a	0.39484483
193	0x3f9730f2	1.1811812
194	0x3f2276ea	0.634627
195	0xbf5c04d3	-0.8594486
196	0xbbe10966	-0.0068675755
197	0x3f8ff09e	1.1245306
198	0x3eede022	0.46460062
199	0x3fba368a	1.4547894
200	0x3fc5395f	1.5408133
201	0xbf89f3db	-1.0777544
202	0x3eaead04	0.34116375
203	0x3f80ccd5	1.006251
204	0x3fbc86ba	1.4728615
205	0x3f34e624	0.70663667
206	0xbed932be	-0.42421526
207	0xbe86ef36	-0.26354378
208	0x3f375869	0.7161928
209	0x3e97b26d	0.29628316
210	0xbd83026c	-0.06396946
211	0x3f8d33b3	1.1031402
212	0x3ecef570	0.4042163
213	0x3f90b6e7	1.1305817
214	0x3e7b6d82	0.24553493
215	0xbf87a53f	-1.0597304
216	0x3e714503	0.23561482
217	0x3e271bdc	0.16319221
218	0xbe0ab0ab	-0.13543956
219	0xbfc62d81	-1.5482637
220	0x3f1c54a6	0.61066663
221	0xbe6daae2	-0.23209718
222	0x3ed6adb7	0.4192941
223	0x3f74f8a5	0.956919
224	0x3f86c6b3	1.0529388
225	0xbe8ff9fa	-0.28120404
226	0x3e209ce6	0.15684852
227	0x3fd616ad	1.672567
228	0xbfc4eaeb	-1.5384191
229	0xbd840882	-0.06446935
230	0x3ea4972a	0.3214658
231	0x3f8bbcc8	1.0916986
232	0x3f8cfd30	1.1014767
233	0xbe37ef8d	-0.17962475
234	0x3eb2c4d0	0.3491578
235	0x3f7c6f16	0.98607004
236	0x3ede39d9	0.4340351
237	0xbe5dda37	-0.21665274
238	0x3e0a43c3	0.13502412
239	0x3f7b2f96	0.98119485
240	0x3fd8b894	1.6931329
241	0x3f8c36d8	1.0954237
242	0x3ee96ab4	0.4558922
243	0x4007e604	2.123414
244	0xbe200d80	-0.1563015
245	0xbf204d03	-0.6261751
246	0x3f09614a	0.53664076
247	0xbf503f56	-0.8134664
248	0xbf990904	-1.1955876
249	0x3f3830b1	0.719493
250	0xbe0cadec	-0.13738221
251	0x3f7683e7	0.96295017
252	0x3d88a2af	0.066716544
253	0x3f0711ae	0.5276135
254	0x3f771356	0.9651388
255	0x3e85cfc3	0.26135072

l1.bias f4 [8]
0	0x3ece0fd5	0.40246454
1	0x3eca79b8	0.3954599
2	0x3fb3d4b4	1.4049287
3	0x3f1a3284	0.6023333
4	0x3f069cc0	0.5258293
5	0xbe9e4a6e	-0.3091616
6	0x3fa3aaaf	1.2786463
7	0x3ec7f27a	0.39052182

l2.weight f4 [8, 8]
0	0x3f41d935	0.75722057
1	0x4088bd84	4.273134
2	0x3f4b944b	0.7952315
3	0xbfa08ae7	-1.254239
4	0x3ff75001	1.932129
5	0x3ff4548f	1.9088305
6	0xbfc19ee3	-1.5126613
7	0x407b541c	3.9270086
8	0xbeab38c8	-0.33441758
9	0xbdf0132e	-0.11722408
10	0xbda39108	-0.07986647
11	0xbcb93df0	-0.022612542
12	0xbeb30a45	-0.34968773
13	0xbe744f6a	-0.23858419
14	0xbe0a2ae5	-0.13492925
15	0xbe5f6c6b	-0.21818702
16	0x4069db4f	3.6540105
17	0xbf8394bd	-1.0279766
18	0x3c0ec544	0.008714024
19	0x3faa5bba	1.3309243
20	0x40228ec9	2.539965
21	0x3d908048	0.07055718
22	0xbe885f6a	-0.26635295
23	0xbe83d1a9	-0.25745896
24	0x3f4e2020	0.8051777
25	0xbfa30382	-1.2735445
26	0x4018f0a0	2.3896866
27	0x3fcb10d6	1.5864513
28	0xbf8da60f	-1.1066302
29	0xbf4cd21e	-0.80008113
30	0xc0091029	-2.1416113
31	0x4005ac02	2.0886235
32	0xc007602a	-2.1152444
33	0x3f1c6876	0.61096895
34	0x3f9ca1b7	1.2236851
35	0x40618275	3.5235875
36	0xbefee3f8	-0.497833
37	0x3fc841ef	1.5645121
38	0x3faafdcd	1.3358704
39	0xbeccd549	-0.40006474
40	0x3fe07193	1.753466
41	0x3fa34f22	1.2758524
42	0x4043c995	3.0591786
43	0xbfb45800	-1.4089355
44	0x3e8e76c6	0.27824992
45	0xbfb6d632	-1.4284117
46	0x4039e042	2.9043126
47	0xbfde39f8	-1.7361441
48	0xbefbd1e9	-0.49183586
49	0xbf0da57f	-0.5533065
50	0xbe1c94cd	-0.15291138
51	0x3fa50359	1.2891647
52	0x40171705	2.36078
53	0xc062bb46	-3.5426803
54	0x3fecc427	1.8497361
55	0x400e3400	2.2219238
56	0x3f0814f3	0.53156966
57	0xbd9115e6	-0.07084255
58	0x3ec4206d	0.3830599
59	0x3f0799f7	0.52969307
60	0xbf8b52bc	-1.0884624
61	0xbf7995b5	-0.9749406
62	0x3fc66110	1.5498371
63	0xbe02c54d	-0.12770577

l2.bias f4 [8]
0	0xbfc246a4	-1.5177808
1	0xbe9e7f09	-0.30956295
2	0xbfe5b63d	-1.794624
3	0x401378a7	2.304239
4	0xbf9c02be	-1.2188337
5	0x3fc1c7d7	1.5139111
6	0x3fd005e0	1.6251793
7	0x3ec9fce9	0.39450768

l3.weight f4 [80, 8]
0	0xbfacfdd3	-1.3514961
1	0xbdd2c808	-0.10292059
2	0xbf993e72	-1.1972182
3	0x3e7268ed	0.23672839
4	0xbeb38cfb	-0.35068497
5	0xbfc5c4d4	-1.5450692
6	0x3f5df5eb	0.86703366
7	0xbeb77c66	-0.35837096
8	0xc063ff08	-3.5624409
9	0xbdb4c9c0	-0.08827543
10	0xc09d47e7	-4.915027
11	0x3f495ac4	0.7865412
12	0xbcbb2450	-0.022844464
13	0x3eb74502	0.35794836
14	0xc03c5b08	-2.943056
15	0xbeaeb8db	-0.3412541
16	0x3e4d0ed7	0.20025192
17	0xbd1a3b60	-0.03765428
18	0x3dcf4946	0.10121398
19	0x3dc87aa7	0.09789019
20	0xc06e9947	-3.7281053
21	0x3ef132fb	0.47109208
22	0xc06d0e4b	-3.7039974
23	0xbf0929d2	-0.5357944
24	0xbf10b3bd	-0.5652426
25	0xbe4d9af6	-0.20078644
26	0xbcafd1ca	-0.02146234
27	0x3edfe410	0.43728685
28	0x3e2cb890	0.1686728
29	0xbf5d5ace	-0.8646668
30	0xc079acd3	-3.9011734
31	0xbf8e4363	-1.1114315
32	0xbf8f30e1	-1.1186792
33	0xbe07db17	-0.1326717
34	0xbf76bdbc	-0.9638326
35	0xbef555e1	-0.47917083
36	0xbfb66dbc	-1.4252238
37	0x3e95daf6	0.29268616
38	0x3f8621b6	1.0479038
39	0x3eebd88b	0.46063647
40	0x3ce0895d	0.02740925
41	0xbe763d63	-0.24046855
42	0xbff8108d	-1.9380051
43	0x3f299745	0.66246444
44	0xbf741f1f	-0.9535999
45	0xc0b7a1ca	-5.7384996
46	0x3ec8888a	0.3916667
47	0x3d9e1cf2	0.07720365
48	0x3e5266c7	0.20547019
49	0x3e9ea7cb	0.3098739
50	0x3dd56fb8	0.10421699
51	0x3f28eb8b	0.6598441
52	0xc0046c7a	-2.069121
53	0xc090d2f4	-4.525751
54	0xbf1ef7f2	-0.62097085
55	0xc0710372	-3.7658353
56	0xc06ed4c7	-3.731737
57	0xbe908027	-0.28222772
58	0xbfd3c441	-1.6544267
59	0x3f6512ea	0.89481986
60	0xc020b85e	-2.5112529
61	0x3f6c60a3	0.92334956
62	0x3f819b1a	1.0125458
63	0xbd1f93f7	-0.03895947
64	0xbc597b19	-0.013273978
65	0x3e40ff26	0.18847331
66	0xbe20524b	-0.15656392
67	0xbf26ddce	-0.651822
68	0xbeeedfe3	-0.46655187
69	0x3e9a3550	0.301188
70	0xbf6ff985	-0.9374011
71	0xc0cb6ec9	-6.3572736
72	0xbef5e2e0	-0.48024654
73	0x3ea2c315	0.3178946
74	0xc017e841	-2.3735507
75	0xbf920fc0	-1.1411057
76	0x3c57063e	0.013124047
77	0x3f0f6255	0.5600942
78	0x3d81e44b	0.063423716
79	0xbe4c57ce	-0.1995537
80	0x3db3fb38	0.087881505
81	0xbe3b4a64	-0.18290097
82	0xc0a3e6a4	-5.1219044
83	0x3ea1a107	0.31568167
84	0xbfd23249	-1.6421596
85	0x3e57b49e	0.21064994
86	0xbfa6ee37	-1.3041447
87	0xbf59197e	-0.84804523
88	0x3edf4e96	0.43614644
89	0x3e8dba31	0.27681115
90	0xc09148c0	-4.5401306
91	0x3fb17e3f	1.3866652
92	0xc012565b	-2.2865207
93	0xc0bf709d	-5.9824967
94	0xc03307c6	-2.7973495
95	0xc01d8535	-2.4612553
96	0xc0317366	-2.7726684
97	0x3dae95b8	0.0852465
98	0xc09061f3	-4.5119567
99	0x3f312bdf	0.69207567
100	0xc0a0c0f9	-5.023556
101	0x3f7bdd2c	0.98384356
102	0x3fa65eb2	1.2997649
103	0xc09172e3	-4.5452743
104	0xbdcab34e	-0.09897481
105	0xbe80fd0d	-0.25193062
106	0xc09a4b23	-4.821672
107	0xbf45a827	-0.77209705
108	0x3f469e3a	0.77585185
109	0xc0aecfc6	-5.462863
110	0xc0936cf9	-4.6070523
111	0xc02e73a9	-2.7258093
112	0xc080ebe9	-4.0287976
113	0x3e78a332	0.24281004
114	0xc04e2a67	-3.221338
115	0xc06261ab	-3.5372112
116	0x3eecf296	0.46278828
117	0x3f2e2d10	0.6803751
118	0xc0594d6e	-3.395351
119	0x3e94d2a9	0.2906697
120	0xbf3da07a	-0.7407299
121	0xbdebd986	-0.11516099
122	0x3ed400c4	0.41406834
123	0xc07f52ce	-3.989429
124	0xbd58229b	-0.052767377
125	0xc082ec6c	-4.09136
126	0x3f51b379	0.8191448
127	0xc00de259	-2.2169402
128	0xbfc8ab45	-1.5677267
129	0x3db09724	0.08622578
130	0x3cd647bc	0.026157252
131	0x3f25f6e3	0.64829844
132	0x3e1ac94e	0.15115854
133	0xc074c3cc	-3.8244505
134	0xc0af33f2	-5.475091
135	0xc00c4ca7	-2.1921785
136	0xc099fc38	-4.8120384
137	0x3deb1be4	0.11479929
138	0xc0a9b8e7	-5.303821
139	0x3f8641b0	1.0488796
140	0xc051d732	-3.2787595
141	0x3f96b8e3	1.1775173
142	0xbf75cecb	-0.96018666
143	0xbfa01f6e	-1.2509592
144	0xbf1d161e	-0.61361873
145	0xbdc2ae18	-0.09505862
146	0x3f53a9e1	0.8268109
147	0xc02dc6de	-2.715263
148	0xbed416b7	-0.4142358
149	0xbf61fd4d	-0.8827713
150	0xc01ea899	-2.4790404
151	0xc0274e06	-2.6141372
152	0x3e9e4284	0.30910122
153	0x3c745e40	0.014915049
154	0xc07de88d	-3.9673188
155	0xc09c4d82	-4.8844614
156	0x3f37f636	0.71860063
157	0xc08e4f13	-4.4471526
158	0xc05e2db4	-3.4715395
159	0xbf8e54f7	-1.1119679
160	0xbf0c0aa1	-0.5470372
161	0x3e78942a	0.2427527
162	0x3f1531a1	0.5827885
163	0x3ebcfc78	0.36911368
164	0xbeb2c419	-0.34915236
165	0xc07f1855	-3.98586
166	0xc092a0d3	-4.582132
167	0xbfda5b7d	-1.705917
168	0xbe7cf6ac	-0.24703473
169	0x3e94f27d	0.29091254
170	0xc091ec72	-4.560113
171	0x3d37b6f9	0.04485223
172	0xbd3780e8	-0.04480067
173	0xbde7b5db	-0.11313983
174	0xc09d3780	-4.913025
175	0xbeae8455	-0.34085336
176	0x3f18cd26	0.5968803
177	0xbda757bc	-0.08171031
178	0xc0a3f397	-5.123485
179	0x3e80d687	0.2516367
180	0xbeb8d449	-0.3609946
181	0xc0b8fe34	-5.7810307
182	0xc09cf144	-4.9044514
183	0xc00c46d1	-2.1918223
184	0xc0b794a5	-5.736895
185	0xbe90c90c	-0.28278387
186	0x3cc70d96	0.02429847
187	0x3e82ec1b	0.2557076
188	0xbf1fc8b7	-0.6241564
189	0x3e86596f	0.26240107
190	0xbebc026e	-0.36720604
191	0xbf33e02d	-0.7026394
192	0xbefc42af	-0.49269626
193	0x3da47924	0.08030918
194	0xbf11d372	-0.56963265
195	0x3e1ffab5	0.15622981
196	0xbecfd26f	-0.40590236
197	0x3e066a22	0.13126424
198	0xc0ba00ef	-5.812614
199	0xbfa32795	-1.2746454
200	0xc09fd959	-4.9952817
201	0x3d9cfcec	0.076654285
202	0xbfc831dc	-1.5640216
203	0xbeea6d2a	-0.4578641
204	0x3f73f554	0.95296216
205	0xc093e0cd	-4.6211915
206	0xc0743fc6	-3.8163924
207	0x3cb06345	0.02153171
208	0xc002d0c8	-2.043993
209	0x3b9a4380	0.0047077537
210	0xc096c913	-4.712045
211	0x3f96bacd	1.1775757
212	0x3f16dcf6	0.5893091
213	0xc0b63976	-5.6945143
214	0xc094b2ea	-4.64684
215	0xc03be3cf	-2.9357793
216	0xbf62ea52	-0.88638794
217	0xbea5f743	-0.32415208
218	0x3ceee51f	0.029161988
219	0xbf04ff06	-0.51951635
220	0xbefbbc02	-0.49166876
221	0x3e504530	0.20338893
222	0xc08f040f	-4.4692454
223	0x3ebc0167	0.3671982
224	0xc08c9d9b	-4.394239
225	0xbe0f964e	-0.1402218
226	0xc0a4602b	-5.1367393
227	0xbe0dec1e	-0.13859603
228	0x3f371bd2	0.71526825
229	0xc0a05e38	-5.0115013
230	0x3e9ac4f7	0.30228397
231	0xbec75ea3	-0.3893939
232	0xbfef61ed	-1.870176
233	0x3ea017ab	0.31268057
234	0xc0a11319	-5.0335813
235	0xbf9a7eae	-1.206991
236	0x3fa8ea11	1.3196431
237	0xbf0214b5	-0.50812846
238	0xc0af467f	-5.4773555
239	0xc02cc299	-2.6993773
240	0xc03afc9d	-2.9216683
241	0x3e04375c	0.12911743
242	0xc0b6d633	-5.7136474
243	0x3faf535f	1.3697318
244	0xc09b5dd3	-4.855203
245	0x3e9328ed	0.2874216
246	0x3f3b0446	0.73053396
247	0xc00486f6	-2.0707374
248	0x3e62e5dc	0.22157997
249	0xbe37951a	-0.17927971
250	0x3e1ee4a4	0.15516907
251	0x3ef12509	0.47098568
252	0xbf727440	-0.94708633
253	0xc09ef6e0	-4.967636
254	0xc0baa873	-5.8330626
255	0xbfdb47d1	-1.7131292

l3.bias f4 [80]
0	0x3efce25e	0.49391454
1	0x3ddc68aa	0.107621506
2	0xc010eca8	-2.2644444
3	0xc05ad0f5	-3.4190037
4	0x3f55031f	0.8320789
5	0xbe950a7f	-0.2910957
6	0xc03060e8	-2.7559147
7	0x3fa0d7cf	1.256586
8	0x3e4df807	0.20114146
9	0xc00d4783	-2.2074897
10	0x3ea0abac	0.31380975
11	0x3fb55f57	1.416972
12	0x3fa3bf04	1.2792668
13	0x3f524856	0.82141626
14	0x3f8f3420	1.1187782
15	0xc00f6b49	-2.2409232
16	0x3ee9db30	0.4567504
17	0x3fd95846	1.6980064
18	0x3ec62840	0.38702583
19	0x3f205ec8	0.62644625
20	0x3e981d6e	0.29709953
21	0x3e739aaa	0.23789468
22	0x3e5ea922	0.21744207
23	0xbf297e31	-0.6620818
24	0xbf08ec27	-0.5348534
25	0x3e186cb6	0.1488522
26	0x3f96a8f3	1.1770309
27	0xbf7f9b11	-0.9984599
28	0x3e51c8fe	0.20486829
29	0x3e7a6163	0.24451213
30	0x3f922273	1.1416763
31	0xbeeae5a5	-0.4587833
32	0x3f72e9c7	0.94887966
33	0xbeba6373	-0.36404
34	0x3f14a4c2	0.580639
35	0x3f0935ef	0.5359792
36	0xbf601eb6	-0.8754686
37	0x3ff9d7e8	1.9519014
38	0x3fc89a4b	1.5672086
39	0xbd6b0f63	-0.05738772
40	0x3de33efc	0.11095998
41	0x3ead7c13	0.33883724
42	0xbee3daa5	-0.4450275
43	0x3f60e513	0.8784954
44	0x3e4d5cd5	0.20054944
45	0x3fb6557b	1.4244837
46	0xc002a5e4	-2.0413752
47	0xbe51bbe8	-0.20481837
48	0x3ec6396b	0.3871568
49	0xc0223c13	-2.5349166
50	0xbf977f8d	-1.18358
51	0xc02cfcf5	-2.7029393
52	0xc000714d	-2.0069153
53	0xbfbf8d40	-1.4964981
54	0xbfbb6b04	-1.4642034
55	0xbf86ef88	-1.0541849
56	0x3dafd3c8	0.08585316
57	0x3f04bf43	0.5185434
58	0xbd4cf0ae	-0.050034218
59	0xbf079d7d	-0.52974683
60	0x3ebd88ac	0.37018335
61	0xbe9024b4	-0.28153002
62	0xc008e7ce	-2.1391482
63	0xc044adef	-3.073116
64	0xc0654469	-3.5823004
65	0x3eb2100b	0.34777865
66	0xbff04c60	-1.8773308
67	0x3f146d83	0.579796
68	0xc01e4512	-2.4729657
69	0xbfb2ca4a	-1.3967984
70	0xbe2ca123	-0.16858344
71	0xbfac8da3	-1.3480724
72	0xbecf9c00	-0.40548706
73	0x3fd175f6	1.6364124
74	0xbfe9725b	-1.8238024
75	0xbf86153f	-1.0475234
76	0xc022dc01	-2.544678
77	0xbf76bf85	-0.96385986
78	0xbf3a10bc	-0.72681785
79	0xbe3b268b	-0.18276422
